4.Learning_uncertain_dynamics/dynamics_nn_ensemble_model.pt (torch, 456779 bytes, 60 tensors)

models.0.layers.0.weight f4 [100, 5]
00000000: 5b80 45be 9b0d 273e b2b1 00bf bcf2 d1be
00000010: ee25 fd3d cb95 703e 7273 213b a137 3f3e
00000020: 1f1b 16be bac7 bc3d fc44 993e cff1 91be
00000030: 393c 943e 97a1 a93e 5a88 d8be 6cca 913e
00000040: 1828 d9bd 6bb4 ad3e 1763 c1be d991 a53e
00000050: 0438 653e 9ac6 cbbe 983d d23d d3ff 04be
00000060: 62c7 633e dcef 83bc a614 6cbe cf39 463e
00000070: 0fba a43e 688c 753e f0f1 e1be e1b5 b43e
00000080: 183b 01bf a687 d33e 08e7 493d ebfd e03c
00000090: 1ab2 3ebf 6c2c f23e 3325 c53e c711 06be
000000a0: 8615 243d b6ce 173f cf14 c63e 7cf4 64bd
000000b0: 58ee 91be 48d5 8bbc 8779 96bd d845 263f
000000c0: 361d c2be 08dc 6ebe 3d76 c73e 685b c23e
000000d0: 090d 17be 2d06 4d3c b2e2 f53d bb5b 023e
000000e0: 1203 0fbd b6d5 f63e e699 fabd dd08 d23e
000000f0: 81c4 bc3d 1171 613e e257 ab3e 2f32 ecbd
00000100: 01be bcbe 24ca e1be ffb4 02be 6b23 a33e
00000110: a6ab 573c 2a4b 97be 4523 d63c 807d 4e3e
00000120: 5a1b 51be ea8b afbe 8b14 403e c888 1e3e
00000130: 5028 e83e 4367 15be 64a1 e63e 669e 3e3e
00000140: b930 9fbe 15bc 8a3e 86d2 81be aafb 433d
00000150: f34b 0d3e 4965 babe 0826 babe 1177 543e
00000160: 61a5 533d d922 85be 725a ca3e 6ca2 393f
00000170: 16b4 bdbe ddc6 613a b270 943e ad47 56be
00000180: 61f8 bdbe 5e16 f9bd 0ca2 b83e 4b0b 4e3d
00000190: cb45 7bbe 40c9 5fbe 9f0b 69be 4bee c93e
000001a0: 6ad0 283e fbb0 42be a5c8 e2be e308 0dbe
000001b0: d48b 27bc 8ddb ba3e 79e6 cb3e 1e1c 873e
000001c0: 66c7 a5be 4379 ad3e e209 eebe 29d3 b0bb
000001d0: dd23 dbbe 070d 913e 37ad 863e b97b 2cbe
000001e0: acf9 9f3e e809 a0be 8810 23bd a0c8 76be
000001f0: 549f 3e3d 8a9d 573e bbdc be3e 56c4 43be
00000200: c940 1bbe 9840 883e dba9 9e3d 2852 08be
00000210: 38f7 e9be 95f5 453d e4b9 0fbe 61cb d03e
00000220: 43a7 b93d 8275 c33e 1887 83be 4b7e a23d
00000230: 4756 83bd cec4 243e f349 5d3e 0098 84be
00000240: 8d44 abbe d1f9 b23e b2fd ae3e 4056 993e
00000250: ee38 f1be 07e3 1ebd 80cd dbbe a6cd b7be
00000260: e38b c43e f1f1 c6be 99b6 d1be 79b6 8ebd
00000270: 272e b03e 6b70 a53e 1618 a3be 6cfa 5d3e
00000280: 0648 1c3e 8363 c7be 8aba 1abd a61f cdbe
00000290: 8960 d23e 809d 3dbe e543 30be 0e19 973e
000002a0: c3b7 b93e b52b e6bd bb20 7ebe b41b eb3d
000002b0: a45e 983e a6b7 94be d3c9 923e 9445 ce3e
000002c0: 2c4a 7dbd 95e1 f63e d2f6 d43e d460 2f3e
000002d0: d1f6 8a3e 0d61 adbe 4514 c5be 1e3c 1bbe
000002e0: 8683 06bd ca94 98be 90ad 96be 4984 96bd
000002f0: f3d8 35be 78a6 dbbe f8a3 1f3e c4d3 eabe
00000300: 7f4e bfbd 6c7a c23d be5f 34bd 23eb dfbe
00000310: 0c8f 45be eeae 27be 095a 17be 91c2 ac3e
00000320: 336c 063e f7ee 83be 74b4 53be ad36 7e3d
00000330: a4f1 403d b9a2 8fbe 2d99 c43e e687 9ebe
00000340: 833f 5c3e dd59 6a3e d139 b03e a6c3 f33d
00000350: 2afe 7f3e 8513 b3be 0497 95be e60a 12be
00000360: 8bb9 eabe 05e2 34be 6ac0 9dbe 5239 dfbe
00000370: a210 b8bd 54c5 87bc b347 cebe bc27 923d
00000380: 803f 08be 028b 743c f43d 513e a852 413d
00000390: 323c e13e 303b cc3e 61f3 303c e093 a63e
000003a0: c531 b63e 3086 9cbe ee50 843e e6f1 413d
000003b0: 087b 98bd 3b94 d03e f197 f23d 3a36 06bd
000003c0: f3c8 e73e 191e 303e 55ea 80be 8465 1ebe
000003d0: b5c1 63be 8eec a9be f8f9 32bd d934 18bf
000003e0: ef66 643d 55fc 94bd c618 86be 2e23 c43e
000003f0: c7af 2dbe 9e0a 1f3e 693f 84bc 333c db3d
-0.19287245 0.16313784 -0.5027114 -0.41005504 0.1236075 0.23494641 0.002463546 0.18673564
-0.14658783 0.09217782 0.29935443 -0.28504798 0.28952196 0.33131096 -0.42291528 0.28474748
-0.106033504 0.3392671 -0.37770912 0.32337835 0.2238465 -0.39799958 0.10265654 -0.12988214
0.22244027 -0.016105585 -0.23054752 0.1935799 0.321732 0.23979342 -0.44129896 0.35295013
-0.50480795 0.4131443 0.049292594 0.027464828 -0.7449051 0.47299516 0.38504943 -0.13092719
0.04005959 0.5929979 0.3868775 -0.05589722 -0.28502154 -0.017069474 -0.07347398 0.64950323
-0.3791291 -0.23326123 0.38957396 0.37960362 -0.14751066 0.012513679 0.12006129 0.12730305
-0.034915037 0.48209924 -0.12236385 0.41022387 0.09217168 0.22015788 0.33465487 -0.11533009
-0.3686371 -0.44099534 -0.12764357 0.3186296 0.013163483 -0.29549533 0.026139865 0.20165062
-0.2042059 -0.34286433 0.18757837 0.15481865 0.45343256 -0.14590172 0.45045006 0.18615112
-0.3109186 0.2709662 -0.2535593 0.047847427 0.13798504 -0.364054 -0.3635714 0.20748545
0.05167139 -0.2600315 0.3952213 0.7251346 -0.37051457 0.0008612702 0.2899223 -0.2092578
-0.3710356 -0.12162469 0.36061132 0.05030374 -0.24538343 -0.21854115 -0.2275834 0.39439616
0.16485754 -0.19012825 -0.44293705 -0.13772921 -0.010226209 0.3649563 0.39824274 0.2638864
-0.3237869 0.33881578 -0.46491915 -0.005396266 -0.428008 0.28330252 0.26304027 -0.16844071
0.31245172 -0.31257558 -0.039810687 -0.2409997 0.046538666 0.2105619 0.3727778 -0.19117865
-0.15161432 0.2661178 0.07747241 -0.1331259 -0.45696425 0.04832991 -0.14035755 0.40780166
0.09065106 0.3817559 -0.25689006 0.07934245 -0.064129405 0.160907 0.2161024 -0.25897217
-0.33450738 0.3495622 0.3417793 0.29948616 -0.47113746 -0.03879073 -0.42930222 -0.35899085
0.38387975 -0.38856462 -0.40959623 -0.06968398 0.3441021 0.3231233 -0.31854314 0.2167756
0.1526185 -0.3894311 -0.037775554 -0.40063208 0.41089275 -0.18517113 -0.172134 0.29511303
0.36273012 -0.11238805 -0.24817173 0.11479893 0.29759705 -0.29046363 0.28669605 0.4028746
-0.061838314 0.4821898 0.4159456 0.17126781 0.2714143 -0.33863106 -0.38492027 -0.15159652
-0.032840274 -0.29801017 -0.29429293 -0.0734945 -0.17758541 -0.42900443 0.15589893 -0.4586469
-0.09341144 0.09496006 -0.04403662 -0.43734083 -0.1929285 -0.16375324 -0.1478044 0.33742192
0.13127212 -0.25768253 -0.20674306 0.06206386 0.047105446 -0.28053835 0.38398114 -0.30963057
0.21508603 0.22885843 0.3441911 0.11902551 0.249993 -0.3497583 -0.29216778 -0.1426197
-0.45844683 -0.17664345 -0.30810863 -0.4359842 -0.089875475 -0.016573586 -0.40289077 0.07136485
-0.13305473 0.01492572 0.2043379 0.047197968 0.43991238 0.39888906 0.010800214 0.32534695
0.35584846 -0.30571127 0.25842994 0.047349833 -0.07445341 0.4073809 0.11845387 -0.03276656
0.452705 0.17198981 -0.2517878 -0.15468413 -0.22241862 -0.3318829 -0.04369542 -0.5945564
0.055762228 -0.07274691 -0.26190776 0.3830809 -0.16961585 0.15531394 -0.016143518 0.107048415

models.0.layers.0.bias f4 [100]
00000000: b5db 693e cfbc a73e 1b49 a23e 8d74 863e
00000010: 501d 453e 0c9d 3f3e a7cb cb3e b646 89be
00000020: 8acb 1f3e ff51 4dbe 6fee 123e 26e1 8f3e
00000030: 6e26 bebe 521e 3bbe 0346 c3bd d616 7bbe
00000040: e715 23be 1553 d1be 4198 abbe 2ade 7ebd
00000050: bc04 dfbe 540b 633e 582b 093d a11a 4bbe
00000060: bb61 8b3e a740 76bd f625 983e 50a0 123e
00000070: 8d75 a83e a61f b1be 73ff 633e 4bf7 75bd
00000080: b908 a63e 844e 91be 573e aa3e a638 14be
00000090: 0eca 863e 290f afbe 77be cf3e 7ae5 c7be
000000a0: abde 303e 874a ae3d 525e ba3d 6e8d f73d
000000b0: ed9c 84be 63c1 fabd 69ae ff3d b623 5e3e
000000c0: 7291 67be 5040 a93d 24fe 64be 620f 92bd
000000d0: c8dc bdbd f579 78be 40cf cebe f487 be3d
000000e0: 0d31 e63d 3241 bdbe 8476 483e 501d c7be
000000f0: 68fe 263e eb01 75be 70df 903e 6d74 6bbe
00000100: cb63 d6be 0ebd bf3e b250 b0be 0317 673e
00000110: b460 96bd 3cff 303c e235 293c b5f3 c33e
00000120: 43dc 37be 8a03 873e 847b b5be 3ddc b0be
00000130: 91c8 5dbe 9600 b4bd 1222 cdbe d027 d8be
00000140: afb2 b3be f212 bdbe 0c07 03bb 95fd d93e
00000150: 3720 6ebd 78e7 cebe 716e 59be 6161 a83d
00000160: d2d4 d93e 06ec cb3e 0f5b 86be 8411 da3d
00000170: 9500 ccbe 0be0 c53e 4fb2 babe 466a 92be
00000180: 0b93 a03e 91b5 d43e 5a9e afbe 4555 4c3e
0.22837718 0.32761237 0.316964 0.26260796 0.19249463 0.18712252 0.39803812 -0.2681176
0.15604988 -0.2005081 0.14348768 0.28101462 -0.37138695 -0.18273285 -0.09534838 -0.2452043
-0.15926324 -0.408837 -0.33514598 -0.06222359 -0.435583 0.2217229 0.0334886 -0.19834377
0.27223 -0.06012025 0.29716462 0.14318967 0.32902184 -0.34594458 0.22265415 -0.06005029
0.3242853 -0.28380215 0.33250687 -0.14474735 0.2632603 -0.34191254 0.40575 -0.39042264
0.17272441 0.08510309 0.091000214 0.120875224 -0.25900975 -0.12243917 0.12484438 0.2169331
-0.22614077 0.0826422 -0.22362572 -0.0713184 -0.09270626 -0.24265273 -0.40392494 0.09303275
0.112398244 -0.36963803 0.1957646 -0.3888955 0.16307986 -0.23926513 0.2829547 -0.22993632
-0.4187301 0.37448925 -0.34436566 0.22567372 -0.073426634 0.01080304 0.010327788 0.3827187
-0.17955117 0.26369888 -0.35445797 -0.34543028 -0.21658541 -0.08789174 -0.40065056 -0.42217875
-0.35097262 -0.36928517 -0.0019993214 0.4257628 -0.05813619 -0.40410972 -0.21233536 0.082216986
0.42545182 0.3982851 -0.26241347 0.10647872 -0.39844194 0.38647494 -0.36464164 -0.28596705
0.31362185 0.41544774 -0.343005 0.19954403

models.0.layers.2.weight f4 [100, 100]
00000000: 5a7c 7dbd 0c97 ebbc 09c6 b5bd a523 1cbc
00000010: cb48 dcbc b528 633d 8dd2 b73d ae67 46bc
00000020: 3f63 2a3d 1222 f0bd e79f 623d 18dd 6b3d
00000030: d33c 373d a78a d8bc 8cc8 82bd 348d 43bd
00000040: 702b 50bd 008e d03b e307 903d 88a8 77bd
00000050: 6d75 d03c e229 5e3d 516c 443d 9a62 bc3d
00000060: fbd1 d83d d7da 043d 98c1 a33d b881 91bd
00000070: cbc7 8abd 1bac b5be f3fa 52be a722 96ba
00000080: 4cfb febc 251b 2d3d 4d3c e43d 72bd b53d
00000090: ceea 173d 60b1 723d 5814 1dbd edda b2bc
000000a0: 980f a6bd dd6e 163d c398 383d f341 783e
000000b0: 1af9 a53d a059 8c3d 7477 4b3d e582 d13b
000000c0: 1ffe 733b c8b6 8abe 6028 bbbc 0eb6 b93d
000000d0: d8e7 5d3e 32d6 34be 3d37 953d bc91 a33d
000000e0: 0a06 bdbd 1987 07be 15e1 59bd affd b6bd
000000f0: b957 a13d 3016 293d b31c 1ebb c4bc 16be
00000100: 6761 59bb 0f5c c13d dac4 253d 99fa aa39
00000110: 800a 26bc 3a54 8b3c dd4b ff3c 6a4c e63c
00000120: 1e0d 3ebd ad6d 5fbd 9a78 4c3c 67c7 f33b
00000130: 4661 56bb 2157 96bd 57da 6d3d cd87 c0bb
00000140: dde0 b43d 3768 af3d 274a debe 12c5 623d
00000150: 593c 60be 4d2d d1bb ad39 9f3c 7ecc 12bd
00000160: 01ee bcbb 5c50 a7bd 5779 673d 53bf 81bd
00000170: b367 2b3c f2a0 9b3d c0f8 583d 6cc2 46be
00000180: 314a 7f3c e87d 77bd 4bcc e5bc bbdb 693c
00000190: ad51 1dbd fb5a ab3d a7ac a03d 3b41 34bd
000001a0: bb43 47bd b095 703d 52f6 96bc 058c d4bb
000001b0: d40a a3bd 32e6 c2bd e1d5 503c 05bd 92bd
000001c0: 7a49 65bd 1f46 cc3d 9a17 b0bd 22a2 153d
000001d0: 800d 773d 00a3 8ebb e350 083d 45b5 fabc
000001e0: 8797 c53c 32de f13a 46df 963d 2241 86bb
000001f0: a095 a3bd 6e4d 8ebd 983e 803d 8903 2d3c
00000200: 0499 bfbc c72c 163d e71d 0dbd 9ace 5c3d
00000210: 8ce4 89bd 6d18 fd3c 2294 cdbb eb92 8ebc
00000220: f1e9 b9bd 4b6b a83d e364 a53d d78c 653d
00000230: df32 ab3c b5ff bebd 1624 18bd 0a78 c2bd
00000240: 731d 89bc a102 143d 00bc 4d3c 9731 87bc
00000250: 07f0 b1bd 456c b63d 3318 eabb c5ad 5ebd
00000260: 509b 68bd 0045 00bb 2d3a 4f3d 75d2 8dbd
00000270: fa07 c2bd 9a12 c6bd aa4a 4dbc bb45 803d
00000280: 704f 303c 0da5 a2bc 0751 3fbc 4f43 8d3c
00000290: 9ac0 4f3c 445d d1bc a311 1ebd 2aed 543d
000002a0: d701 cb3d 48ad 833d c578 b5bd b99c d03c
000002b0: 890e 963d e2b0 123d 9af5 eb3c c0a4 b83d
000002c0: a6d3 ccbc b20d b9bd ddb8 b5bd 5552 c0bd
000002d0: 4349 aebd 20cb 113d 4381 abbd 23da 8ebd
000002e0: b1c8 a93d e7f9 87bb a66a 30bd dbe5 e13b
000002f0: 9ad7 53bd 5859 a8bd 60f2 bc3d 8808 0b3d
00000300: 6763 c63c 2510 44bc d7cd 313d ed28 0e3d
00000310: 74d4 d2bd 8b35 a9bd b664 85bb b2fc 013d
00000320: 4a16 babd 2c19 0f3d 0a6f 063d 2926 443d
00000330: bce4 113d 8ab1 7fbd 936f 94bd a048 8dbd
00000340: e02b b0bd d090 f33c e5b3 863d 26c4 88bc
00000350: 4295 9f3d f317 5c3c 88e9 bd3d bf5f a43d
00000360: 679e 9eba 60e1 fb3c fe17 1abd abff a53d
00000370: 734e 94bd 4dd4 2abd 1b1b a93d 8dce 583d
00000380: 2fe4 0ebd aa44 b0bd a67f 223d 931f 6c3d
00000390: e59b 943d 0673 b23d 9cf5 a3bd 1804 efbc
000003a0: 47e3 5f3d 6de8 ef3c 05b9 793d a4b5 84bc
000003b0: c834 92bd 53da bf3c c590 2e3d 63ea 1abd
000003c0: e2c4 bb3d d240 a6bd 752c 8f3d 9601 b5bd
000003d0: 155b b43d 70f1 d23a e06d c1bd c57a 89bd
000003e0: 00a8 d5bd c75f 58bd 7a06 dabc b011 abbc
000003f0: c4df cbbd dd3d 7bbd 0d44 7dbc 51b8 b0bd
-0.06188617 -0.028758548 -0.08875663 -0.009529983 -0.02689018 0.055458743 0.08975706 -0.01210968
0.041598555 -0.117252484 0.055328276 0.0575839 0.04473574 -0.026433302 -0.063859075 -0.047742084
-0.050822675 0.006364584 0.07032754 -0.06046346 0.025446618 0.05423916 0.04795486 0.09198494
0.105869256 0.032435264 0.079959095 -0.0710482 -0.06776389 -0.3548287 -0.20603542 -0.0011454419
-0.031125687 0.042262215 0.11144314 0.088740245 0.03708916 0.05925119 -0.03834948 -0.021832908
-0.08108443 0.03672682 0.04506756 0.24243908 0.08104153 0.06853032 0.049674466 0.0063937777
0.0037230325 -0.27092576 -0.0228464 0.09067927 0.21670473 -0.17659834 0.072859265 0.07986781
-0.092296675 -0.1323513 -0.05319317 -0.08935105 0.0787806 0.041280925 -0.0024125993 -0.14720446
-0.0033169629 0.09441387 0.040470935 0.00032611637 -0.010134339 0.017007936 0.031164104 0.028112609
-0.04639923 -0.054547954 0.0124799255 0.007439542 -0.0032711788 -0.07340837 0.058069553 -0.0058755637
0.08831952 0.08564799 -0.4341595 0.055363722 -0.21898021 -0.006383574 0.019436682 -0.03583955
-0.005765677 -0.08169624 0.056512203 -0.0633532 0.010461736 0.07599057 0.0529716 -0.19410104
0.015581653 -0.060422808 -0.028051516 0.014273579 -0.03840797 0.083669625 0.07845431 -0.04400752
-0.048648577 0.058736503 -0.018428002 -0.006486418 -0.0796105 -0.095165625 0.012746305 -0.07164959
-0.055978276 0.09974312 -0.08598252 0.036531575 0.06031561 -0.004352927 0.033280265 -0.030604014
0.024120105 0.001845306 0.07366805 -0.00409712 -0.07987523 -0.06948362 0.06261939 0.010559925
-0.023388393 0.036663797 -0.034452345 0.053907968 -0.06733045 0.030895436 -0.0062737623 -0.01740404
-0.09077824 0.082235895 0.08075883 0.05604252 0.02089828 -0.09326116 -0.03714379 -0.09495552
-0.016737675 0.03613532 0.01255703 -0.016503138 -0.0868836 0.089073695 -0.007143998 -0.05436494
-0.056788743 -0.0019572377 0.05059259 -0.06924907 -0.09474178 -0.09671517 -0.012530008 0.062633
0.010761127 -0.019854093 -0.011677033 0.01724401 0.012680197 -0.025557168 -0.03859104 0.05198399
0.0991246 0.06429535 -0.088609256 0.025465356 0.07326991 0.03581322 0.028803635 0.090157986
-0.025003266 -0.09035815 -0.088731505 -0.093907036 -0.08510067 0.035594106 -0.08374264 -0.069752
0.08290232 -0.0041496637 -0.043070458 0.006893856 -0.051719286 -0.08220166 0.09225917 0.033943683
0.02421732 -0.01196674 0.043409195 0.034707 -0.102944285 -0.08262166 -0.0040708436 0.03173513
-0.090862826 0.034936115 0.03282074 0.047887955 0.03561853 -0.062425174 -0.072478436 -0.06898618
-0.086021185 0.029732138 0.06577281 -0.016695093 0.077921405 0.013433444 0.09273058 0.080260746
-0.0012101651 0.030747116 -0.037620537 0.081054054 -0.072415255 -0.041706372 0.08257123 0.052931357
-0.03488558 -0.08606847 0.039672516 0.0576473 0.07256297 0.08713345 -0.08005831 -0.029176757
0.054660108 0.029285634 0.060967464 -0.016199894 -0.071389735 0.023419535 0.04261853 -0.037821185
0.09168412 -0.08117832 0.069909014 -0.08838193 0.08806435 0.0016093682 -0.09444785 -0.067128696
-0.10432434 -0.052825715 -0.026614416 -0.020882457 -0.09954789 -0.061338294 -0.015458119 -0.086289056

models.0.layers.2.bias f4 [100]
00000000: 6c94 ccbc db05 663d 3977 c2bd cd2c 4f3c
00000010: 6e3d 8fbd c3ef ae3c 00a0 6cbd 4dc6 c33d
00000020: 104b fb3c be0a ac3c b81b 82bd 3d44 69bd
00000030: d5c0 a2bd 0704 57bd 7139 4cbd 49cb 2fbb
00000040: c4b8 9b3c 4b24 75bd 3aa6 a33d ae6f 043d
00000050: db5f b8bb 1517 6bbd d0e7 493d 9860 953d
00000060: 3aa7 17bd 19a5 afbd 0585 773d 0c8c ac3c
00000070: fab0 bcbd f5b6 8c3d eddd c9bd 72f1 93bd
00000080: c2ed a53d 6d5b 1abc fb69 bdbd 83c2 8d3d
00000090: 1ada af3b 4778 d1bc f964 94bd 2b87 923d
000000a0: 9ac6 643d 209b 873d c3b1 9e3b 44c0 883d
000000b0: df33 7dbd 255f 85bd 0efa 83bd 0beb 923d
000000c0: 909b b83d 99b0 483d 9fdc 703d 80c8 b63d
000000d0: 1c7e 7dbd aa16 b43d c730 5dbd 5a3a a1bc
000000e0: f721 92bc 676c babc 6731 5cbd be36 93bc
000000f0: e88e 5b3c a7ba ae3d c515 68bd cd1f b6bd
00000100: 31ff 9a3d 580c 853d 4338 683d 94ab 753d
00000110: 9bfe fc3c e293 88bd 3aea 133d d60e 223d
00000120: bd16 973d 28e0 20bd bcf0 aa3d f72a 78bd
00000130: 30fd b43d 1e25 4d3d e191 bc3d b08a 40bd
00000140: 970b 1abd 23cb 79bc 1572 f13c 2598 733d
00000150: 0cdb 483d 0f46 893d f8cc 72bb 910f 8cbd
00000160: 173e 78bd 67d2 ed3c 2d00 773d 915a a43c
00000170: 34a1 a2bc 0adb 9c3d 64e5 093d f7bf 3dbd
00000180: dda7 333d 5054 a1bd bfc2 6dbc 4d5c 2e3c
-0.024973117 0.056157928 -0.09495396 0.012644959 -0.06994139 0.021354562 -0.057769775 0.09559307
0.030675441 0.021001216 -0.06352943 -0.056949843 -0.07946936 -0.052494075 -0.049859468 -0.0026824048
0.019009002 -0.059849065 0.079906896 0.03233307 -0.0056266612 -0.05739506 0.04929334 0.072938144
-0.037024714 -0.08576412 0.06042959 0.021062873 -0.09213443 0.06870834 -0.09856782 -0.072237864
0.08101989 -0.009421212 -0.0924873 0.06921866 0.005366576 -0.025570048 -0.072458215 0.071546875
0.055853464 0.066213846 0.004842968 0.06677297 -0.061817046 -0.06512288 -0.064441785 0.07173737
0.09014046 0.04899654 0.05880415 0.08924961 -0.061887845 0.08793385 -0.054001596 -0.019681145
-0.017838461 -0.022756768 -0.05375805 -0.017970439 0.013400771 0.08531695 -0.056661386 -0.08892784
0.07568205 0.06496495 0.05669428 0.059978083 0.030883124 -0.066688314 0.036112048 0.03956493
0.07377384 -0.039276272 0.08346698 -0.06058785 0.08837354 0.050084226 0.09207512 -0.047007263
-0.03760871 -0.0152461855 0.029473344 0.05947127 0.049037024 0.06702816 -0.003704844 -0.068389066
-0.06060609 0.029030992 0.060302902 0.020062717 -0.019852258 0.07658966 0.03366603 -0.04632565
0.04386126 -0.078774095 -0.014511763 0.010642123

models.0.layers.4.weight f4 [2, 100]
00000000: d617 f73d c0d5 67bd 5ff3 9fbd a82b b0bc
00000010: a451 523d 6f43 9dbb 4556 c9bd 3379 6ebc
00000020: d003 c3bc be98 6cbd eb03 4c3c 7b33 673e
00000030: 15f6 433b cde9 273c c8c8 12bb 27cb b03d
00000040: 043c c83d 8f8b e23c 7c11 a5bd 0fc4 20bd
00000050: d011 86bd 167b 4abd 2264 a43d 0e78 043d
00000060: a7d9 493c 074a 933d c48b 8dbd fc55 91bd
00000070: 1f5b c3bd 7d61 b7bd 6f1f b2bd 2ea9 a2bc
00000080: 8294 a53d 45e7 9c3d d5cd 923d 1dea 37bd
00000090: 1adc 823d 2fbf 82bd 6e31 bfbd 2d6d a1bd
000000a0: d9d4 323d 683b b43b 5dab 0e3d 5506 e3bc
000000b0: 91ea 9f3b 34c9 833c ddf7 61bc e7c3 b9bc
000000c0: 188a efbc 8eff db3b 5098 bd3d 7fcf efbc
000000d0: 4a7c a9bd c450 023d 674a b53b d3da bd3d
000000e0: c9e8 6d3d 5378 bbbd e1ca fbbc 921e 883d
000000f0: c17f 463d d2e6 dd3b b462 74bc 92bc 6b3d
00000100: 2c62 72bd 38ee adbd 10b6 8e3d f1f6 b73d
00000110: 6c89 833c f507 abbc c077 8ebc 00b0 763b
00000120: a17f bf3d c8f9 743d fe89 463d 67c3 5ebd
00000130: 4329 acbd d5d7 8abd a12b b73d 1a4b 5cbc
00000140: 07e5 843c 4764 99be c883 8ebd 2a14 74bc
00000150: c137 14bd dc98 543d bd70 953d 7553 403d
00000160: 2220 963d 83bf 6ebd e863 d33c 3f2d a3bd
00000170: 9c38 d73d 3b03 69bd c732 be3c af1d d03b
00000180: c030 c93d e374 9bbd e228 46bd 0df4 a2bc
00000190: adf8 0f3d c82e 44bd 6812 913d 65be 2abb
000001a0: 4a45 bc3d a4ec 55bd 670a 183b 6deb 1d3d
000001b0: 90ea 9abd aac0 b33d cf64 4abd 7e96 71bc
000001c0: b640 98bd 23dd 623d 207d 85bd e0f8 9ebd
000001d0: e5aa ab3d 9b4b 27bd ed5f 5b3d 5db5 5d3d
000001e0: aeeb a03d 953c 8dbd 9ecf bcbd 1a6c 873c
000001f0: 5a27 30bc 9b2c 693c 70ce 8d3d 7f0f 9abd
00000200: 70a9 8dbd 2027 073c 9d97 4cbd 4622 be3d
00000210: 1338 9cbd f9a0 c9bd a7f1 1cbc 30d4 b83d
00000220: ab99 a7bd 3f49 a4bd 09bd d2bd 6f8f be3d
00000230: 99cd c03d 7f53 a6bc d4ee c33d c099 d8bc
00000240: abec 6cbd 97b5 cdbd cd39 f43c e70e aa3b
00000250: c310 4e3d 3829 2b3d 2baf 3c3d 67fe a1bd
00000260: 6e70 b8bd b070 b43d 8d0b acbd 0a71 04bd
00000270: 2774 8dbd 337a 6b3b 66ee 773d 73a7 123c
00000280: 908f e93b 91bd 83bd 7697 f8bc 9582 99bd
00000290: 0353 3cbd 8682 8bbd 4730 cabc aa28 b83c
000002a0: f03f 0abe c5a1 c5bb 9ac1 c93d f198 fa3d
000002b0: 20ea 8cbd 44a7 b43d ec54 2b3c 6446 fcbc
000002c0: 55a3 7cbd 258b debd dfd4 aebc 2f26 aa3d
000002d0: a7f8 613c bf47 33bd 8ddf 8ebd 28cf a53b
000002e0: 1007 d9bb 426f a53d 4b43 6dbd b9cf 36bd
000002f0: 9a7a 973b c868 b23d 67ea 99bd 7979 c43d
00000300: c4ed aabd e4f1 a339 13b7 fdbc 4098 adbd
00000310: c44f 5ebd 0a5a a83d c217 0a3c e014 b23d
0.12065093 -0.056600332 -0.07810091 -0.021505192 0.05134739 -0.0047992985 -0.09830908 -0.014555263
-0.023805529 -0.057762854 0.012452106 0.22578232 0.0029901315 0.010248614 -0.0022397507 0.08632498
0.09777072 0.027654437 -0.080599755 -0.039249476 -0.06546366 -0.04943379 0.08026911 0.032341056
0.012319959 0.07191854 -0.06911424 -0.07096478 -0.09538864 -0.08954141 -0.08697402 -0.019856062
0.08084966 0.07661299 0.071681656 -0.044901002 0.06389637 -0.063841216 -0.093356 -0.07882152
0.04366002 0.005500246 0.034831394 -0.02771298 0.0048802574 0.016087152 -0.013792005 -0.022676421
-0.029240653 0.006713814 0.09257567 -0.029273747 -0.082756594 0.031815305 0.005532551 0.09270253
0.05808333 -0.091538094 -0.030736389 0.06646456 0.04846168 0.0067719007 -0.014916111 0.05755288
-0.059175655 -0.08492702 0.069683194 0.08982647 0.016056739 -0.020877818 -0.017391086 0.0037641525
0.09350515 0.059808522 0.048471443 -0.05438557 -0.084063075 -0.06779448 0.089438684 -0.01344564
0.01622249 -0.29959318 -0.06958729 -0.014897386 -0.036185984 0.05190359 0.07296894 0.04695459
0.073303476 -0.05828811 0.025804475 -0.079676144 0.10508844 -0.056887846 0.023217572 0.006351195
0.098237514 -0.07590654 -0.048378833 -0.019891763 0.035149265 -0.047896177 0.07083589 -0.0026053425
0.09192903 -0.05222763 0.002319956 0.038554598 -0.075642705 0.08776982 -0.049412545 -0.014745353
-0.07434218 0.055386674 -0.06518006 -0.07762313 0.08382205 -0.040843587 0.05355828 0.05412804
0.07857452 -0.06896321 -0.09219287 0.016531039 -0.01075157 0.014231826 0.069241405 -0.07522487
-0.06917083 0.008249074 -0.049949277 0.09283881 -0.07627883 -0.09845156 -0.009579099 0.090248466
-0.08183607 -0.08021783 -0.10289962 0.093047015 0.09414215 -0.020303486 0.09567037 -0.026440501
-0.05784289 -0.10044401 0.029812718 0.005189765 0.050308954 0.041787356 0.04606549 -0.079098515
-0.09005819 0.08810556 -0.08400641 -0.032334365 -0.0690692 0.003593099 0.06053009 0.008951056
0.0071277097 -0.06432641 -0.03034566 -0.0749561 -0.045977604 -0.06812005 -0.024681224 0.022480328
-0.13500953 -0.0060312473 0.0985138 0.122362025 -0.06880593 0.08820966 0.010457259 -0.030795284
-0.061679203 -0.108663835 -0.02134174 0.08308064 0.0137921935 -0.043769594 -0.06976233 0.0050600953
-0.0066231564 0.08077861 -0.057925504 -0.044631694 0.0046227695 0.08711392 -0.07515412 0.095934816
-0.083461314 0.00031270005 -0.030971086 -0.08476305 -0.05427529 0.082202986 0.008428516 0.08695388

models.0.layers.4.bias f4 [2]
00000000: 6b00 49bd a6ac 943b
-0.049072664 0.004537183

models.1.layers.0.weight f4 [100, 5]
00000000: 7b46 043e f94e ad3d 7f21 a83d 8e2b 2c3e
00000010: f0e8 773c 595f cdbe 40a2 8c3c 5ebe 993e
00000020: ac0b 50be 6f82 b43e 8dc5 c53e 2992 41be
00000030: 74c1 1d3e 2653 c0be 6b73 e93d 117b dfbc
00000040: c78d ac3e 0659 45be aaac 3a3d d8f3 d03d
00000050: 5650 0ebe b164 d3be 6fcc c4bd ebf4 7fbe
00000060: 0eea d73e 9f69 9fbe 8721 2c3e a2f5 40be
00000070: 092d dc3d 1d45 23be 2a79 d5bc 51aa 263e
00000080: 35d2 0cbe 9824 8dbe f519 93be 99dc c23e
00000090: 5f8a f1bd c5c2 2f3e b405 cf3e 9922 78be
000000a0: 0980 83be 04c3 e0bd cda3 d53d 2561 bf3e
000000b0: e83d fc3d c65e 15bc 1a07 e73d b71f 813e
000000c0: cbc5 cebd ff2b 9ebe feeb b03e 4763 313c
000000d0: a6b4 243e 1651 7fbe a212 cd3e 527b 56be
000000e0: 78ed 2fbe 1761 1abe fd77 c33e 8c32 3d3e
000000f0: b3d5 ab3e 409d 3ebe fc34 1fbf a6fe c93e
00000100: 7865 6d3e 021f e3be 3c9e d23e 99b4 10be
00000110: 86b5 f03d a4b4 0dbe 8cdc 0e3e 7b35 743e
00000120: e51b b6be 8e01 a33e f00b 223e 0e64 09bf
00000130: d2f3 4d3d 8b68 123f 749e e63e e33a 8b3c
00000140: bbf8 c4be 9717 aa3c 239c da3e 6670 ea3e
00000150: 2ddd 7abd b1f3 a83d aec7 233e 054d cf3d
00000160: 404a a03e 00ca 94be 453a a83e 3278 8bbe
00000170: 051d 81be 4ac1 8abc 1896 35bc a24f bcbe
00000180: 7b0c 033f 49d0 34be 3142 cbbd 1f02 4e3e
00000190: 844a 89be ab8d 89be 194b b23d ed81 423e
000001a0: 3000 963e 1310 a23e 8fb1 48be fea9 f13d
000001b0: 8a44 58be dfe5 9ebe 6900 fcbe 6cda 323e
000001c0: c51a 5a3d 1634 c2be 7810 ba3e 0eb3 893e
000001d0: 9ea0 9bbe cf09 e73e a85a 473d 0574 dabe
000001e0: 66e0 bd3e 5332 e5be 370d e7be 4025 d5be
000001f0: 9cf8 f13c 1788 033e 2432 d43e ced9 89be
00000200: df66 433e 1c45 d2be 5528 9bbe ede1 a7bc
00000210: a3b2 ba3d c2a9 cf3e 9b46 ae3e 2a64 d8be
00000220: 3ac9 dc3e 4570 52be afee 8c3d 25bc 823e
00000230: 9fae a23e b1f4 c13d 40f3 a53d cee0 9e3e
00000240: 6fc7 623e 3b4e ccbe b0e6 c73e 7d49 413e
00000250: fad4 86be b814 9cbd 3886 b23e 6424 11be
00000260: e49f bfbe 0801 2bbd 3fe3 b3be 946d 93be
00000270: c988 05bd b961 afbe 59b0 853e d621 923e
00000280: ef65 b13e 30b9 b0be 35bc b9be 4a07 9d3e
00000290: bd11 babe aa5d b73e a41e 4dbe 9cbe abbe
000002a0: e522 a13d f9d6 bcbe 4053 93bd e00c 69bd
000002b0: ac6c 113c dea4 26be 713d 913e e142 9cbe
000002c0: 4ba3 d13e 7d67 863e e8aa 683e 8fa4 423e
000002d0: 5d4d 20be 46c2 2dbe b326 803d f3b7 053e
000002e0: cb83 9fbd 59a9 9ebe 9f1b 3b3e cb86 723c
000002f0: b6bd 99bd 392a 543e b23a bc3e 67a3 1bbd
00000300: 3dd1 ad3e c352 84be 85d2 873e ada3 26bd
00000310: 8440 5cbe 4e0a 8c3e 713a dcbe 87ef 4b3d
00000320: cf8b bdbd 0a1c 8dbe c201 f4be c513 82be
00000330: 7559 633e abb4 d1be b326 ef3e b209 06bf
00000340: 0ab1 26be 59d2 4b3e 6264 73be 45da 9d3e
00000350: d4a7 5d3e ddd7 8d3e 55d8 81be 6430 53be
00000360: 6ab5 043f f960 2bbd f882 85be 225b 93be
00000370: bd9e d43e 1092 85bd ec8c 5dbe aad0 a23e
00000380: ab3d a63e babc 253d c525 1abd 10b0 b83d
00000390: 8855 c2bd 99f4 df3e d134 e23e 5a4b 263f
000003a0: bae3 86be ae29 f43d dbb3 993e 87b9 b9be
000003b0: 3759 25be 6816 d5be 409a a73e 3b0d c8be
000003c0: fe9d 2ebe 45ab 973d 55ec 963e 3698 e9bb
000003d0: 296f 933e 8eab 443e 5299 333e eeee 243f
000003e0: 5205 8fbe c986 0b3e fbc2 5bbd 37fb c23d
000003f0: 0cdf 853d e63f f83d e62d e53d 3577 7bbd
0.12917511 0.084623285 0.08209514 0.1681349 0.01513122 -0.40111807 0.01716721 0.3002805
-0.20316952 0.35255763 0.38627282 -0.18903412 0.15405828 -0.37563437 0.11398967 -0.027280362
0.33701918 -0.19272241 0.04557482 0.102027595 -0.13897833 -0.4128776 -0.09609305 -0.24995773
0.42170757 -0.3113527 0.16809665 -0.18843701 0.10750777 -0.15944333 -0.026058752 0.16275908
-0.13752063 -0.2756698 -0.2873074 0.38058928 -0.1179397 0.17164142 0.4043404 -0.24231948
-0.2568362 -0.10974696 0.10431633 0.37378803 0.12316495 -0.009116834 0.112806514 0.2521951
-0.1009632 -0.3089294 0.34555048 0.010826892 0.16084537 -0.24933276 0.40053278 -0.2094548
-0.17180431 -0.150761 0.3817748 0.18476313 0.33561477 -0.18614674 -0.6219022 0.39452094
0.23183239 -0.44359595 0.41136348 -0.14131393 0.11753373 -0.1383844 0.1395132 0.23848526
-0.35568157 0.31837124 0.15824866 -0.53668296 0.050281353 0.5719077 0.45042765 0.016995853
-0.38471016 0.020763202 0.42697248 0.45788878 -0.061246086 0.082496054 0.1599414 0.10122112
0.31306648 -0.29060364 0.32856956 -0.2724014 -0.25217453 -0.01693787 -0.011083148 -0.36779505
0.5119092 -0.1765758 -0.099247344 0.20117997 -0.26814663 -0.26865897 0.0870573 0.18994875
0.29297018 0.3165289 -0.19598983 0.118000016 -0.21119896 -0.31034753 -0.49219063 0.17466134
0.053248186 -0.37930363 0.3634069 0.2689442 -0.3039598 0.4512467 0.04867044 -0.4266664
0.37085265 -0.44764957 -0.4512727 -0.41629982 0.029537492 0.12844883 0.41444504 -0.26923984
0.19082211 -0.4106835 -0.30304208 -0.020493472 0.091161035 0.40559202 0.34038243 -0.4226392
0.43122274 -0.2055064 0.06881463 0.25534168 0.3177385 0.09470499 0.08103037 0.31030887
0.2214639 -0.39903435 0.39043188 0.1887569 -0.26334363 -0.07621139 0.34868026 -0.14174038
-0.37426674 -0.04174903 -0.35134313 -0.2879454 -0.03260115 -0.34254244 0.26111105 0.2854144
0.34648082 -0.34516287 -0.36276403 0.30669624 -0.36341658 0.35813648 -0.2003122 -0.3354386
0.07867984 -0.3688276 -0.07193613 -0.056897044 0.008876007 -0.1627383 0.2836719 -0.30519775
0.40944895 0.2625083 0.22721446 0.19008087 -0.15654512 -0.1696864 0.06257381 0.13058452
-0.077888094 -0.30988577 0.18272255 0.014802645 -0.075068876 0.20719232 0.3676353 -0.03799763
0.339487 -0.25844392 0.265278 -0.040683437 -0.21508986 0.27351612 -0.43013337 0.049788978
-0.09255182 -0.27560455 -0.4765759 -0.25405708 0.22202094 -0.4095815 0.46709213 -0.52358544
-0.16278473 0.1990446 -0.23768762 0.3083059 0.21646053 0.27703753 -0.2536036 -0.20623928
0.51839316 -0.041840527 -0.26076484 -0.28780466 0.41527358 -0.06522 -0.21635789 0.31799823
0.32468924 0.040463187 -0.037633676 0.09017956 -0.0948897 0.437413 0.4418092 0.6495873
-0.26345617 0.11922012 0.3002003 -0.3627436 -0.16147314 -0.41618657 0.3273487 -0.39072594
-0.17052457 0.07405714 0.29477182 -0.0071287407 0.28795746 0.19206068 0.17538956 0.6442708
-0.27933747 0.13625635 -0.053652745 0.09520572 0.065366834 0.12121563 0.11190395 -0.06139298

models.1.layers.0.bias f4 [100]
00000000: 3311 d03e ffdb ce3e ce7a c63e 28ff 893e
00000010: cf70 26be b9c4 5f3e 4b78 d6be f75f 0bbe
00000020: 5dc4 d83d e21b 0abe e5d4 1b3e 6a78 6cbd
00000030: 8247 81be 0239 d73e fedc 4bbe 865c b2bd
00000040: 9a32 963e da22 0b3e a4b4 c53e d076 bd3e
00000050: d17a 793e dd76 c7be 995c 88be 67be 27be
00000060: d352 12be 2478 8f3e d114 c53d 666c 8f3e
00000070: d242 063e 01b2 6c3e b9e6 9f3e 73cc d7be
00000080: aee5 123e d1bf 7bbe 3127 733d 4dea 753c
00000090: 2e31 5b3e 9526 bd3e a566 5dbe 6367 023e
000000a0: 6f90 533e 91c1 bf3d 7d8e cbbe 438e 163d
000000b0: f2d6 67bd 1ecc b03e dc02 b3be 47c2 2bbe
000000c0: 7f56 6d3e 0641 d6be d932 173e 9f56 df3d
000000d0: 180a abbd 15e7 db3e 84cb 983e ec91 58be
000000e0: eff5 bebd 6b7f cb3c fbb4 2abc 3e79 1bbe
000000f0: 84bf 51be 3f6b 26be b410 81be 36a1 38be
00000100: 1803 713e e038 763d 609c 9cbe 8c3a 13be
00000110: b3f5 2fbd f59d c2be 26cf ebbe e023 bebe
00000120: f65a 8f3e d175 d83d 678c 3cbe bb93 f0bd
00000130: c576 863e ef5e a4bd 0557 a9be 76b9 c7be
00000140: a3a4 b23d d745 813e d3c4 70be a392 953d
00000150: e511 5cbc dac7 413b f975 a03e 03b1 b03e
00000160: f410 d53d 86d2 5d3e ee52 693e 93b7 2bbe
00000170: 95f0 933e 9044 d63d b42f 323e de24 c6be
00000180: 1de9 42bd 91e5 b0be af9a 8dbe c6dc af3e
0.40638122 0.4040222 0.38765568 0.2695248 -0.1625397 0.21852387 -0.4188865 -0.13610826
0.10584328 -0.13487199 0.15217932 -0.057732023 -0.2524987 0.4203568 -0.1990852 -0.08709054
0.2933548 0.13587514 0.3861438 0.3700471 0.24363257 -0.38957873 -0.26633146 -0.16381226
-0.14289407 0.28021348 0.09623111 0.2801239 0.13111427 0.23114778 0.31230715 -0.4214817
0.14345428 -0.24584891 0.059363548 0.015009475 0.2140548 0.36943498 -0.21621187 0.12734751
0.20660566 0.09363092 -0.39757147 0.036756765 -0.056601472 0.3453073 -0.3496312 -0.1677333
0.23177527 -0.41846484 0.1476549 0.109051935 -0.083515346 0.4294974 0.2984277 -0.21149415
-0.09324252 0.024841031 -0.010419126 -0.15182969 -0.20483214 -0.16251849 -0.25208056 -0.18030247
0.23536336 0.060112834 -0.30588055 -0.14377803 -0.042958926 -0.38011137 -0.4605648 -0.37136745
0.27999085 0.10569347 -0.18412934 -0.11746927 0.2626249 -0.0802592 -0.33074203 -0.39008683
0.08722808 0.25248596 -0.23512582 0.07303359 -0.013432001 0.0029568584 0.31340006 0.3451005
0.10403624 0.2166234 0.22785541 -0.16769247 0.28894487 0.10462296 0.1740101 -0.38700002
-0.047585595 -0.34550145 -0.27657077 0.34348124

models.1.layers.2.weight f4 [100, 100]
00000000: 1336 033d e2a3 0f3c 943f 8fbc ed61 39ba
00000010: a5e0 2d3d ea58 3cbe 281d b8bd bc6e 9bbd
00000020: 31fe dabc 4395 90bd af3e d43d ca8e a73d
00000030: e366 9e3d bdf4 e8bc 37c8 0a3d 4236 c4bc
00000040: 622b a9bd e5a7 03bd b029 b5bd 37b3 94bd
00000050: ec44 16bd 9a64 94bd 9714 c6bd d0f2 903d
00000060: a784 7abc a375 33bc ec7c 83bd 0977 633d
00000070: a5f6 5fbc a03e 48bd 1571 dd3c a052 c9bd
00000080: 28ec 52bd f84d 94bd a262 9e3d b7fa 7e3d
00000090: eede 893c e0fa ef3c 3cb2 b53a d742 be3c
000000a0: fce9 8fbd d127 c0bd 1d2a 04bd c347 2ebc
000000b0: 951e a33b 55fc fbbc f87d f83d 5b5a 85bd
000000c0: b294 02bd f073 adbd fbd8 ccbc b58e 84bd
000000d0: 4307 0d3d 2d26 c3bd f95a 683d adaf 133d
000000e0: fea8 7d3c 3199 983d d3c7 a6bd b0b7 bdbd
000000f0: a4e7 ad3d 26c2 0bbe 413e b6bb 2aaf c23d
00000100: 7824 763d ae44 043d bd30 763d 339b 37bd
00000110: b7c0 64bd 0133 6a3c c818 693d 53d4 963d
00000120: 6de9 7abd 7b11 0cbd dfe1 a43c a7e6 633d
00000130: 86ee 7c3b e9c6 d33c ea27 9f3d 5333 abbc
00000140: bf45 ccbd 3373 3f3c fa42 723c cc77 ca3d
00000150: 0a90 a93d 88cd a03d e1fe d0bd cff0 163d
00000160: ff50 b23d 718c ebbc 3118 353d 7459 f8bc
00000170: 4251 61bc 51a4 87bd c2dc 16bd 335f 823c
00000180: 2da2 6b3d 5012 0abe ea55 b8bb 6ee9 cebc
00000190: b69e 603d a763 353d ed95 0d3d d29a 923d
000001a0: 5880 223d 48b4 cc3d 8d34 71bc cb62 c8bd
000001b0: 871c c4bc 6340 53bd 94bd fb39 bc32 6d3d
000001c0: 576e a8bd cf80 55bc 4015 8abc a848 55bc
000001d0: 07c3 28bd 9b95 4a3d 5185 5abd c660 34bd
000001e0: 4eb0 b93d 07f0 5c3d edaa e83d 8636 87bd
000001f0: 0093 8f3d 1db9 bfba e0db 7c3d 3baf 5e3c
00000200: 980b b3bd c042 9a3d ab2b 373b f3ec f6bc
00000210: 3f43 afbd 425c fdbc 40bd 353d f663 00bd
00000220: 4990 85bd e4fd debb 0837 5dbc f78b b3bd
00000230: d639 a3bb d7be ca3d 23d5 383d 6381 723c
00000240: 691a 6fbd a9a9 a63d 782a a0bc d049 233d
00000250: 629e 203c ac73 29be a611 8fbb 5a98 12bd
00000260: 3342 39bd f618 043b eea5 6fbd 2038 3b3d
00000270: b56b ee3c 7d18 7f3d a681 48bd 630b 843d
00000280: 457a bcbd 76cd 0e3e 84ed 9e3d 2b2d 8fbc
00000290: bc4a 3abd 15cb 053d 772c cabd 989c 27bd
000002a0: 2027 b1bc 898e 9bbc 4368 253c 0a08 26bd
000002b0: 2d25 5cbd fff2 90bd 5aa2 143d d7c1 aebd
000002c0: 7af9 c63d 8919 85bc 7053 c83d f0c6 b73d
000002d0: a37e 49bd 085c be3c 2d16 2cbe 26a9 a53d
000002e0: b380 98bd d72f c0bd 5f2e fabc 0a4c 653c
000002f0: f1e2 b53d 4985 8abd 7729 803d 5549 21bd
00000300: cb0b 7bbd c7e1 84bd 0202 cc3d efcb abbd
00000310: 3e30 b4bc c708 6dbd 2cf4 09be 43ee 6abb
00000320: bce4 7dbd 8f1a 82bd 29a4 593d f237 3f3c
00000330: 6289 903c b3b0 b4bd 10e7 0b3d c933 34bd
00000340: 366c 0abd 3ac5 853d f79f 82bd ecc5 043d
00000350: 0e10 c13c 5cfe 693d 7bed 2a3d 7f49 85bd
00000360: 6d38 1dbd de8c 82bd 17ce b4bb 8e8f 123d
00000370: f488 b4bd 63ea 5e3d 95f1 a93d 58b5 53bd
00000380: 25a9 0b3d 8e84 fbbc 3298 6abd c765 a13d
00000390: ba1f 77bd 0812 29bd 535d 8fbd 403f 753d
000003a0: 8a47 7ebd b562 85bd b7ad c33d 65ee 90bd
000003b0: 9ffe 02bc f4a5 c1bd a67b a63d 217c 43bc
000003c0: c4ff eebc 4c72 c5bd 982e bfbd 0022 a6bd
000003d0: 6b6f be3d 8535 1fbd 6035 fd3d 4071 333d
000003e0: 1be5 783c 18d3 1fbe 2aaa 8f3c 1bba bbbd
000003f0: c3d6 b7bd 560d 8e3c 3de5 b7bd 055e a73d
0.03203399 0.0087671 -0.017486371 -0.0007071782 0.042450566 -0.18393293 -0.08989936 -0.0758948
-0.026732536 -0.070597194 0.103635184 0.08181532 0.07734468 -0.028437013 0.033882346 -0.023951653
-0.08260228 -0.03214254 -0.08845842 -0.07260745 -0.036686823 -0.07245751 -0.09671896 0.07077563
-0.015290416 -0.01095334 -0.06420311 0.055533443 -0.0136696445 -0.04888785 0.02703146 -0.098302126
-0.051494747 -0.07241434 0.077336565 0.06225082 0.016829934 0.029294431 0.0013862322 0.023225231
-0.07027051 -0.093825944 -0.032266725 -0.0106372265 0.004978011 -0.03075997 0.12133402 -0.065113746
-0.03188009 -0.08469379 -0.025005808 -0.06472532 0.034430753 -0.09528766 0.056727383 0.03605621
0.015482185 0.07451094 -0.08143582 -0.09263551 0.084914476 -0.1364828 -0.0055616205 0.09506066
0.060093373 0.03229206 0.060105074 -0.044825744 -0.05584785 0.014294387 0.0569084 0.073647164
-0.06125777 -0.03419636 0.020127235 0.05563989 0.003859432 0.025851684 0.07771285 -0.020898497
-0.099742405 0.0116851805 0.014786476 0.09886131 0.082794264 0.07851702 -0.10204864 0.036850747
0.08706855 -0.028753491 0.044212524 -0.030316092 -0.0137522835 -0.06623138 -0.036831625 0.015914535
0.05752771 -0.13483548 -0.005625476 -0.025257792 0.05483886 0.04428449 0.03456681 0.07158436
0.03967318 0.099953234 -0.014722002 -0.09784468 -0.023939384 -0.051575076 0.00048015697 0.057909712
-0.08224171 -0.013031199 -0.016855836 -0.013017811 -0.041201618 0.04945908 -0.053349797 -0.044037603
0.090668306 0.053939845 0.113607265 -0.066021964 0.0701046 -0.0014627312 0.061733127 0.013591583
-0.08742446 0.07532263 0.0027949612 -0.030142283 -0.08557748 -0.030927781 0.044369936 -0.03134533
-0.06521661 -0.0068051685 -0.01350189 -0.087669306 -0.00498126 0.09899681 0.045125138 0.014801356
-0.058374796 0.08137829 -0.0195515 0.039865315 0.009803386 -0.16548032 -0.0043661175 -0.035789825
-0.045229148 0.002015648 -0.058507852 0.04570782 0.029104093 0.062279213 -0.048951767 0.06447484
-0.092030086 0.13945565 0.07760146 -0.017477592 -0.04548143 0.032664377 -0.09871762 -0.040920824
-0.021625102 -0.018988864 0.010095659 -0.04053501 -0.05374639 -0.07077598 0.036287643 -0.08533066
0.09715553 -0.016247528 0.097815394 0.08973491 -0.049193036 0.023237243 -0.16805334 0.08088903
-0.074464224 -0.09384125 -0.03053969 0.01399518 0.08881176 -0.067637034 0.06257909 -0.039376575
-0.061290544 -0.06488376 0.099613205 -0.083885066 -0.02199566 -0.0578697 -0.1347205 -0.0035847581
-0.061985716 -0.06352722 0.05313507 0.011671053 0.017643634 -0.08822765 0.034155905 -0.0439947
-0.033794604 0.065317586 -0.06378167 0.032415316 0.023567226 0.05712734 0.041730385 -0.06508159
-0.03838389 -0.063745245 -0.005517732 0.035781436 -0.08815184 0.054422747 0.08298031 -0.051686615
0.034096856 -0.030702855 -0.05727405 0.078807406 -0.06033299 -0.04127696 -0.07000222 0.059874773
-0.062079944 -0.065129675 0.09554618 -0.0707672 -0.007995277 -0.09455481 0.08129053 -0.01193145
-0.029174693 -0.09640941 -0.09335059 -0.08111954 0.09298595 -0.0388694 0.12363696 0.043809175
0.015191342 -0.1560787 0.017537195 -0.09166356 -0.089765094 0.017340343 -0.089792706 0.0817223

models.1.layers.2.bias f4 [100]
00000000: 621f c13d 622e 573d 6432 893d cb86 5d3d
00000010: c1b9 c1bd 6363 90bd 4390 49bc d915 8c3c
00000020: add5 babc e0ca aebc 8a06 cc3d df60 c53c
00000030: da26 093d 77e7 ac3d fb87 75bd 15c2 873d
00000040: d043 d23d 7361 1fbd e46a 7a3c 2b3e d33b
00000050: edd3 af3d 3397 eebc 8d4a 023d 2281 a1bd
00000060: 8dc3 483b 2d61 9cbc df2d acbd 0223 9c3d
00000070: d24a 0abd 54b0 c5bd a09b 973d 21fe 97bd
00000080: a7c8 45bd c0ae 90bd 5689 9fbd 7b7c a0bd
00000090: a100 73bd fa24 c9bd 929c 94bb c740 aabc
000000a0: 5ee1 df3c 6798 a63d 486f cabc 0da8 52bd
000000b0: 4516 cabd 3d6e 593d 8b1a 83bc b73d 933d
000000c0: 1d2f 28bd 0c60 233c c4cf ba3c e7fe 313d
000000d0: a287 333b fc25 acbd fa3b ad3c c0c5 d33d
000000e0: 2fa3 86bd b0de e23c aeb3 d43c 70d2 5ebd
000000f0: f3a5 e8bc 82d3 b43a 8f30 143c 6883 7f3d
00000100: 7b87 d0bd 7cf4 813d 9a15 94bd 5aa0 4abd
00000110: 1577 4a3c faab 92bd 920a 003d e795 923d
00000120: 324b 9fbd 1780 8fbd 0f6f eb3c 1ea0 b83d
00000130: 907e 0c3d 27b3 2f3d 739b c5bd 67b6 983b
00000140: 431c 05bd 20a6 bebd 90d5 92bd 0711 c0bc
00000150: a87c a43d cf7f 3fbc 0782 94bb dff6 9d3d
00000160: 3b94 99bb 666d 8bbd f0e2 6fbd fa3c d63c
00000170: 1fb5 2e3d b7c4 2ebd fb12 c7bd c735 de3c
00000180: 2f78 c6bd e0a4 e23c 8a97 313d d454 ad3c
0.09429814 0.05253447 0.066990644 0.054083627 -0.09459258 -0.070502065 -0.012302461 0.017100262
-0.022806967 -0.021336973 0.09962185 0.024094043 0.033484317 0.08442586 -0.059944134 0.06628815
0.102668405 -0.038911294 0.015284274 0.00644662 0.085853435 -0.029124832 0.03180938 -0.07885958
0.0030634135 -0.019089306 -0.08407187 0.07623865 -0.03376276 -0.096527725 0.0740273 -0.07421518
-0.04828706 -0.07064581 -0.077898666 -0.07836243 -0.05932677 -0.09821506 -0.004535266 -0.020782841
0.027329143 0.08134537 -0.024711266 -0.051429797 -0.09867529 0.053083647 -0.016003868 0.071895055
-0.041060556 0.00997163 0.022804148 0.043455984 0.0027394076 -0.084056824 0.021146763 0.10340452
-0.065740936 0.027694076 0.025964584 -0.054399908 -0.028399443 0.0013795944 0.00904478 0.06238118
-0.10182091 0.0634546 -0.07230683 -0.04946933 0.012357493 -0.07161708 0.03126008 0.07157498
-0.07778014 -0.07006853 0.02873948 0.09014915 0.034300387 0.042895462 -0.0964879 0.004660416
-0.032497656 -0.093090296 -0.0716964 -0.02344562 0.08031589 -0.011688187 -0.004532102 0.077131025
-0.00468686 -0.068079755 -0.058566034 0.026152123 0.0426532 -0.04266807 -0.09720417 0.027125252
-0.09690892 0.02766651 0.04335741 0.021158613

models.1.layers.4.weight f4 [2, 100]
00000000: a75b 823d 8e02 abbd 1b38 b73b 6d35 2fbd
00000010: ed11 813c b79a 493d e860 aa3d 4ef3 bc3c
00000020: 3acf 373d aa54 a9bd bca2 bd3d 27ba 3fbd
00000030: 9d92 87bd 6fdd abbd 1385 e7bc a4cd 3abd
00000040: 0d36 b93c 21aa b3bd e571 633d 273e 7b3d
00000050: 6f8f 3e3b d7e9 bc3d c426 163c ddfe c0bd
00000060: 0ae0 3c3d 8354 39bd 40af 483d 1b05 893c
00000070: 5f6d 6a3d f379 46bd 4f9b a43d 61bf 91bd
00000080: 16c9 32bd 6c53 623d b65a 1e3d 2a14 8d3d
00000090: 59fa 85bd 1738 c0bd e7f3 97bd 0cd8 173d
000000a0: b295 f9ba 0bf8 57bd 0f91 f53c 96f5 20bc
000000b0: 7afa 8abc cd26 a6bd f8c1 85bd e44b 9fbd
000000c0: bdf3 703d 3ae3 c7bc bf81 f5bb 62f5 52bd
000000d0: 7473 0b3d c9bb 83bd 676c 87bd 4221 04be
000000e0: 67da 19bc a2b8 bb3d 9b7b d6bd 787f bbbd
000000f0: 138d cc3d 00d3 b9bd 28f9 94bd 47b3 463d
00000100: 6455 493d 9453 923d c782 d2bc aff6 9b3d
00000110: 29ca bcbd c823 4ebd 2575 c23d 6e9f 6a3d
00000120: a5fd c33d 06d6 febc c3dc 3dbd e80e b1bc
00000130: 2d84 e23c 1db2 17bc a27f f9bc a3c5 26bd
00000140: aa5c 26bd 2ee8 68bd 2007 88bc 8943 28bd
00000150: db7e 783c ba7d 8fbd e0f4 a6bd f018 c0bd
00000160: 6f31 abbd d95e 95bc e705 243c fc9c a23d
00000170: 6221 3fbd 053c bb3d bfb1 9fbd f44d 11bc
00000180: f3f1 ab3b da6f 33bc 9aa5 a1bd 6f52 9b3c
00000190: 793b b53c adbf 51bd 3fb8 453d e182 a0bd
000001a0: df60 353d 490c 703c a1c5 38bd 1b92 c9bd
000001b0: b3f6 c6bb fad4 a43d d009 c03d 3710 98bc
000001c0: e760 bfbc ab77 c4bc da8c a83d 889c 68bb
000001d0: 50f2 aa3d d055 133d 92bf eabc f670 d53d
000001e0: f403 143c 332d 21bc 6f23 963c 336f abba
000001f0: 0ab2 50bd eaa2 9fbd 6769 22bb b189 f83d
00000200: 9465 293d fc68 4ebd daf8 2ebd 2013 ce3d
00000210: de27 2fbd c48a 70bc 3e8a 5f3d c75e 81bc
00000220: f631 f5ba 207e 1f3d a16a 833d 5146 003d
00000230: 0ced 78bd ee18 b13c 8567 cc3c 0e82 f0bd
00000240: cdc1 6fbc 1ec8 263d d2ee ae3c 528e d53d
00000250: f8f4 c9bd 0b2d 95bd 6f64 ac3d 1d5c 083c
00000260: 6955 90bd 3c9a 483d 30fd c13d e502 4f3d
00000270: c341 48bd 8071 dd3d 51f9 8fbd cd23 0dbc
00000280: 4805 bcbd e745 193d b358 bcbd 9f32 17bd
00000290: 5058 a03d 4147 c2bd 981a 92bd b2e8 b93c
000002a0: af80 b2bd b579 86bd eeef fb3a fda9 75bd
000002b0: 9ac0 99bd bbcd 9ebd ef3b b0bd 573c 933d
000002c0: 0d8a 2bbc 7ea7 36bc fd11 7dbc 809a fd3c
000002d0: 70f7 a93d 09b0 c9bd cd98 e53c fa75 a43d
000002e0: 2080 823d b735 253c e753 ac3d e95a ad3d
000002f0: 97c7 e83c 7091 6ebd d7e0 43bd 5238 66bc
00000300: cfa8 e03d 0346 8ebd 935c 993d 4ff2 70bc
00000310: 23f4 143d 3da0 213d d94f 143c bd54 743d
0.063651375 -0.08350097 0.005591405 -0.04277556 0.015755618 0.049219813 0.08319265 0.023065235
0.04487536 -0.082681015 0.09259555 -0.046808388 -0.06619761 -0.083918445 -0.028261697 -0.04560627
0.022608781 -0.08772684 0.05552854 0.06133857 0.0029077192 0.09224289 0.009164516 -0.09423611
0.046112098 -0.045246612 0.048995256 0.016726067 0.05723321 -0.048456144 0.08037435 -0.07116581
-0.0436488 0.05525534 0.038660727 0.068886116 -0.06541891 -0.09385698 -0.074195676 0.037071273
-0.0019041805 -0.052726787 0.029976396 -0.009824177 -0.01696514 -0.081128694 -0.06531137 -0.07778147
0.058826197 -0.024400342 -0.0074922736 -0.051503547 0.03404565 -0.064323016 -0.06612473 -0.12903312
-0.00939045 0.09166075 -0.104727946 -0.09155172 0.09987845 -0.09073448 -0.07274085 0.048510816
0.0491537 0.071448475 -0.025697125 0.076154105 -0.092182465 -0.050327092 0.09495 0.05728095
0.09569863 -0.031107914 -0.046353113 -0.021613553 0.027650917 -0.009258774 -0.030456368 -0.040715825
-0.040615715 -0.05686205 -0.01660496 -0.04108003 0.015166963 -0.07006402 -0.08152175 -0.093797565
-0.08359038 -0.018233703 0.010011173 0.07940099 -0.046662696 0.09142307 -0.07797574 -0.008868683
0.0052473485 -0.01095196 -0.07892914 0.018960206 0.022123085 -0.051208187 0.048271414 -0.07837463
0.044281837 0.0146513665 -0.04511035 -0.098423205 -0.0060718893 0.080484346 0.093768716 -0.01856242
-0.023361636 -0.023982843 0.0822999 -0.003549369 0.08346999 0.03597051 -0.028655801 0.10421936
0.009034146 -0.0098374365 0.018327443 -0.0013079405 -0.05095104 -0.07794745 -0.0024782063 0.121356376
0.041356638 -0.05039309 -0.042717792 0.100622416 -0.04276263 -0.014681522 0.054575197 -0.015792264
-0.0018706906 0.03893864 0.06416822 0.03131706 -0.06077294 0.021618333 0.024951706 -0.11743556
-0.014633608 0.04071819 0.021354113 0.10427536 -0.09861177 -0.07283982 0.08417594 0.008322743
-0.07047541 0.048975214 0.0947212 0.05053987 -0.04889084 0.10812664 -0.07029975 -0.008614493
-0.09180695 0.03742018 -0.091966055 -0.03691351 0.07829344 -0.09486247 -0.071339786 0.022693966
-0.08715951 -0.065661825 0.0019221285 -0.059976567 -0.07507439 -0.07754084 -0.086051814 0.07189243
-0.010469926 -0.011148332 -0.015446183 0.03095746 0.08299148 -0.09848029 0.028026963 0.08030315
0.06372094 0.010083607 0.084144406 0.08464605 0.028415484 -0.05824417 -0.047821846 -0.014051514
0.10969698 -0.069469474 0.0748836 -0.014706208 0.03636564 0.039459456 0.00905224 0.059651125

models.1.layers.4.bias f4 [2]
00000000: 00fd 0a3d e5bc b1bd
0.033932686 -0.08678607
